app/src/main/assets/dice_stats_model.tflite (tflite, 3888 bytes, 8 tensors)

sequential/dense_1/BiasAdd/ReadVariableOp f4 [16]
0	0x00000000	0.0
1	0xbe5c72e0	-0.21528196
2	0xbd4665b8	-0.04843685
3	0xbe184945	-0.148717
4	0x3d7dbb2d	0.061946083
5	0x00000000	0.0
6	0x00000000	0.0
7	0xbd930c7b	-0.07180115
8	0x3e31644d	0.17323418
9	0xbe79277d	-0.2433147
10	0x00000000	0.0
11	0x3eae8508	0.3408587
12	0x3d8ca83d	0.068680264
13	0x3e913719	0.2836235
14	0xbebb0644	-0.36528218
15	0xbe3378b0	-0.17526507

sequential/dense_2/BiasAdd/ReadVariableOp f4 [8]
0	0xbc36beef	-0.011153921
1	0x3e4a0c2b	0.19731204
2	0xba1f1d6c	-0.0006069753
3	0x00000000	0.0
4	0xbe004a23	-0.12528281
5	0x00000000	0.0
6	0xbebcfcac	-0.36911523
7	0xbe5373c6	-0.20649633

sequential/dense_3/BiasAdd/ReadVariableOp f4 [4]
0	0x3d6cd1b1	0.057817165
1	0x3c4f55d9	0.012654745
2	0x3f187b48	0.5956311
3	0xbf270433	-0.6524078

sequential/dense/BiasAdd/ReadVariableOp f4 [8]
0	0x3ea7ad96	0.32749623
1	0x00000000	0.0
2	0x00000000	0.0
3	0x00000000	0.0
4	0x3d6d5d90	0.057950556
5	0xbf071913	-0.52772635
6	0x00000000	0.0
7	0x00000000	0.0

sequential/dense/MatMul f4 [8, 4]
0	0xbe61c39f	-0.2204728
1	0xbee68f5e	-0.45031255
2	0x3efff328	0.499902
3	0xbee260fb	-0.44214615
4	0xbee6a890	-0.45050478
5	0x3e652660	0.2237792
6	0xbf0c33d8	-0.5476661
7	0x3ea4a6ea	0.32158595
8	0xbedaddb4	-0.4274727
9	0x3f3050e7	0.6887345
10	0xbedebd99	-0.43504027
11	0x3f2a222f	0.6645841
12	0xbd709500	-0.058735847
13	0xbf280173	-0.6562721
14	0xbd2d6770	-0.042334974
15	0xbe558f1c	-0.20855373
16	0x3e5899f6	0.21152481
17	0x3e7fc7b8	0.2497853
18	0xbdbfbc31	-0.093620665
19	0xbe0e8ef3	-0.13921718
20	0x3eb4948a	0.35269576
21	0xbf8808c0	-1.062767
22	0x3e6f1afc	0.23350137
23	0xbeb16eca	-0.34654838
24	0xbe721522	-0.23640874
25	0xbe3c6e60	-0.1840148
26	0xbe5cea18	-0.21573675
27	0xbea8fd53	-0.3300577
28	0xbea4ce41	-0.3218861
29	0x3dccbea8	0.09997302
30	0xbe2e7a78	-0.17038906
31	0xbf139fe2	-0.57665837

sequential/dense_1/MatMul f4 [16, 8]
0	0xbe19d060	-0.15020895
1	0xbce26b80	-0.02763915
2	0xbe002b48	-0.1251651
3	0xbe700490	-0.2343924
4	0x3b321c00	0.0027177334
5	0xbe2526c8	-0.16128075
6	0x3dc9d030	0.09854162
7	0x3e8559a4	0.26044953
8	0x3e39b37d	0.18134876
9	0xbecf82bc	-0.4052943
10	0x3e007bf8	0.1254729
11	0x3e7337d0	0.2375176
12	0x3e331bfb	0.17491142
13	0x3d1f5a68	0.038904577
14	0xb93f0000	-0.0001821518
15	0x3ea7c888	0.3277018
16	0xbd193340	-0.03740239
17	0x3ec67660	0.38762188
18	0x3dba0040	0.09082079
19	0xbe3b1970	-0.18271422
20	0x3f0bc0cc	0.5459106
21	0xbe8014af	-0.2501578
22	0x3d0ddf00	0.034636497
23	0xbe913574	-0.28361094
24	0xbea8594d	-0.3288063
25	0x3ea02c30	0.31283712
26	0x3eca0638	0.3945787
27	0x3ecda1c4	0.4016248
28	0x3dd329d9	0.10310716
29	0x3ea95c82	0.3307839
30	0xbec0d838	-0.37664962
31	0xbef56180	-0.4792595
32	0x3ed5ca37	0.4175584
33	0x3d816650	0.06318343
34	0x3ed45fec	0.41479433
35	0xbdac9260	-0.08426356
36	0xbe23a196	-0.15979609
37	0xbef6d296	-0.4820754
38	0xbe9b49f8	-0.3032987
39	0xbe147530	-0.14497828
40	0xbdff3980	-0.12462139
41	0xbd70c4e0	-0.058781505
42	0x3e1034a0	0.14082575
43	0xbec414b8	-0.38297057
44	0xbcfc1280	-0.03077054
45	0xbe707360	-0.23481512
46	0xbe95e380	-0.2927513
47	0x3ee5c0dc	0.44873703
48	0xbe77ff50	-0.24218488
49	0xbef3a344	-0.475855
50	0xbe2f0d08	-0.17094815
51	0x3d20ae20	0.03922856
52	0xbe745708	-0.23861325
53	0x3c38ef00	0.011287451
54	0x3efc7e24	0.49314988
55	0x3e50a620	0.20375872
56	0x3d7e705e	0.06211888
57	0x3df641f0	0.12024295
58	0x3dbb9f70	0.0916127
59	0xbe094e88	-0.13408864
60	0x3e6d5cda	0.23179951
61	0x3e8f4367	0.2798111
62	0xbeee04d4	-0.4648806
63	0xbe82a774	-0.25518382
64	0x3cd737c8	0.026271716
65	0x3eda715c	0.4266461
66	0xbea64894	-0.32477248
67	0xbe516c70	-0.20451522
68	0x3e8bf9a1	0.2733889
69	0x3e25efc5	0.16204746
70	0xbe726c78	-0.2367419
71	0x3e3a1cf8	0.18175113
72	0x3ed87f8c	0.4228481
73	0xbda90330	-0.08252561
74	0x3e513640	0.20430851
75	0xbd5b08c0	-0.05347514
76	0x3d1aa235	0.03775235
77	0xbe212db9	-0.15740098
78	0xbe8acd34	-0.27109683
79	0xbda53490	-0.08066666
80	0xbe781578	-0.2422694
81	0xbdf6b3e0	-0.12046027
82	0x3dd78d30	0.10524976
83	0x3eab1108	0.3341143
84	0x3ece2670	0.402637
85	0xbeebdf38	-0.4606874
86	0x3e31dad0	0.17368627
87	0xbea5d704	-0.32390606
88	0x3dc1bc84	0.094597846
89	0x3ee9a158	0.45630908
90	0x3e3df910	0.18552041
91	0x3ec1d388	0.37856698
92	0xbdfb70e0	-0.122773886
93	0x3ed3df35	0.4138123
94	0x3e71f128	0.2362715
95	0x3ebb11f4	0.36537135
96	0x3e9152f6	0.28383607
97	0x3d346c00	0.04404831
98	0x3eaf6d48	0.34263062
99	0xbec3f54c	-0.38273084
100	0x3ec74fc6	0.3892805
101	0xbe099f70	-0.13439727
102	0xbe972b6c	-0.29525316
103	0x3dcc0c20	0.0996325
104	0x3ed111b3	0.40833816
105	0x3e6fb6d8	0.23409593
106	0xbe8aca20	-0.27107334
107	0x3e986990	0.29768038
108	0x3e7736ff	0.24142073
109	0xbe8c55a5	-0.27409092
110	0xbeb02d6c	-0.34409654
111	0xbefeaae4	-0.49739754
112	0x3d89ef07	0.06735044
113	0x3dd4dbb0	0.103934646
114	0x3cf244c0	0.029573798
115	0xbdeb55f0	-0.11491001
116	0x3d6e011f	0.058106538
117	0x3ee06fcd	0.43835297
118	0x3abd4000	0.0014438629
119	0xbe4b23f8	-0.1983794
120	0xbef6a9c5	-0.481764
121	0x3bc8f900	0.0061331987
122	0x3ed34624	0.4126445
123	0x3e47e290	0.1952002
124	0x3d43ee03	0.047834408
125	0x3c4ad981	0.012380959
126	0x3de23a00	0.11046219
127	0x3e2ff628	0.17183745

sequential/dense_2/MatMul f4 [8, 16]
0	0x3e603b10	0.2189753
1	0xbe657143	-0.22406487
2	0xbe991db7	-0.29905483
3	0xbecdea7b	-0.40217957
4	0x3ed750c0	0.42053795
5	0xbdce70c0	-0.10080099
6	0xbebb4e0c	-0.36582983
7	0x3e62a445	0.22132976
8	0x3ee7e238	0.4528978
9	0xbee1f534	-0.44132388
10	0x3ee73348	0.45156312
11	0xbe5c04fb	-0.21486275
12	0xbeae4650	-0.3403802
13	0xbc7c9c80	-0.015418172
14	0xbd1f0138	-0.03881952
15	0xbda27503	-0.079324745
16	0x3e401208	0.18756878
17	0x3cf2bcac	0.029630981
18	0xbe288f77	-0.16460977
19	0xbded836e	-0.11597334
20	0xbcc0aae0	-0.02351898
21	0x3e71ead0	0.2362473
22	0x3e3cd3e0	0.18440199
23	0xbcbd2535	-0.02308903
24	0x3ef8d0af	0.48596713
25	0x3d1cfcd9	0.03832707
26	0x3e83fb04	0.25777447
27	0x3ed76a4c	0.42073286
28	0xbc067813	-0.008207339
29	0x3dfae60a	0.12250908
30	0xbe1ed058	-0.15509164
31	0xbe64b634	-0.2233513
32	0xbe68f318	-0.22748983
33	0x3e22eaf0	0.15909934
34	0x3e96a15c	0.29419982
35	0x3d41ccc0	0.047314405
36	0x3ed2befe	0.4116134
37	0xbea0c378	-0.3139913
38	0xbea652e0	-0.32485104
39	0xbeca795a	-0.3954571
40	0xbf00a9c0	-0.5025902
41	0x3e8f9f5c	0.2805127
42	0xbefb6220	-0.490983
43	0x3dad7010	0.0846864
44	0xbe8cc22e	-0.27491897
45	0x3e281176	0.16412911
46	0xbed65e10	-0.4186864
47	0xbeba4b18	-0.36385417
48	0x3dc0e860	0.09419322
49	0x3eb27d10	0.3486104
50	0xbe20d4b8	-0.15706146
51	0x3e4e4db0	0.20146823
52	0x3ee3d8f0	0.44501448
53	0xbeb7db44	-0.35909474
54	0xbd0faf00	-0.035079002
55	0xbec5e734	-0.38652956
56	0xbe9d5814	-0.3073126
57	0x3d4492e0	0.047991633
58	0x3dea1ed0	0.11431658
59	0xbdedfb50	-0.116202
60	0xbeb00928	-0.34381986
61	0x3e448d98	0.19194639
62	0xbe9974dc	-0.2997197
63	0x3e55af10	0.20867562
64	0xbe0d4830	-0.13797069
65	0x3e5d029e	0.2158303
66	0x3f12bdcb	0.5732085
67	0xbecb8d08	-0.39756036
68	0xbec2b0e3	-0.3802558
69	0x3ea1fb28	0.3163693
70	0x3e6002a8	0.21876013
71	0x3e9bb872	0.30414158
72	0x3e91fa22	0.2851115
73	0xbeaa9efd	-0.33324423
74	0x3efd7e10	0.4951024
75	0xbefe84e7	-0.4971077
76	0xbebb767b	-0.3661383
77	0x3eebaf6f	0.46032283
78	0x3e7e9adc	0.24863762
79	0x3e9ec3ee	0.31008857
80	0xbe7243e0	-0.23658705
81	0xbed2e4d4	-0.41190207
82	0x3ea0c4a8	0.31400037
83	0x3cacd080	0.021095514
84	0x3e2b0e48	0.16704667
85	0x3d77c400	0.060489655
86	0xbb687600	-0.0035470724
87	0x3df3d480	0.119057655
88	0x3b5f2000	0.0034046173
89	0x3eba5dd8	0.36399722
90	0xbdd5f650	-0.10447371
91	0xbe954440	-0.29153633
92	0xbecd3b48	-0.4008429
93	0xbebd7dcc	-0.37010038
94	0xbeb38db8	-0.3506906
95	0xbdae0540	-0.08497095
96	0xbe2df9c8	-0.16989815
97	0x3ca43a7b	0.020047417
98	0xbea56f46	-0.32311457
99	0x3ccd62b6	0.025071483
100	0xbe53977e	-0.20663258
101	0xbed2d314	-0.41176665
102	0x3db5c680	0.088757515
103	0x3df39c5e	0.11895059
104	0x3e28abf9	0.16471852
105	0x3e4fee84	0.2030583
106	0xbef97b98	-0.48727107
107	0xbedb7e73	-0.4286991
108	0x3eeb5005	0.45959488
109	0xbef62393	-0.48074016
110	0x3ea86aab	0.3289388
111	0x3dd5561c	0.10416815
112	0x3ed66160	0.41871166
113	0x3eca63cc	0.39529264
114	0x3e5b1d3d	0.21397872
115	0x3e95accb	0.29233393
116	0x3db42e05	0.0879784
117	0xbdc0abc0	-0.09407759
118	0x3ebe0508	0.37113214
119	0xbd9a4399	-0.075324245
120	0xbeb8c5af	-0.3608832
121	0x3ee835ee	0.45353645
122	0xbed3cddc	-0.41367996
123	0x3eab302c	0.3343519
124	0xbeb41e2a	-0.35179263
125	0xbedddb56	-0.43331403
126	0x3dbfff0b	0.093748175
127	0xbd856584	-0.06513503

sequential/dense_3/MatMul f4 [4, 8]
0	0x3ef659f9	0.4811552
1	0xbea1787e	-0.3153724
2	0x3f11a2da	0.56889117
3	0xbdfdb760	-0.12388492
4	0x3ea9b003	0.331421
5	0x3f090a35	0.535312
6	0xbe282c14	-0.16423064
7	0x3ee43673	0.4457279
8	0xbee26750	-0.44219446
9	0xbeb26a04	-0.34846509
10	0x3d82fd07	0.063959174
11	0xbe255d40	-0.16148853
12	0x3e1a5eb3	0.15075187
13	0xbebf5593	-0.37369975
14	0xbe2d3775	-0.16915686
15	0x3efbf3c1	0.49209407
16	0xbe6028f0	-0.21890616
17	0x3ef393ee	0.475738
18	0xbec67e85	-0.38768402
19	0xbe61d112	-0.2205241
20	0xbed5b605	-0.41740432
21	0x3edca0ca	0.43091422
22	0xbeab6240	-0.33473396
23	0xbf21599d	-0.63027364
24	0xbe11e529	-0.14247574
25	0x3e11bded	0.14232607
26	0x3eac520c	0.33656347
27	0x3dddf320	0.10837388
28	0x3d31cb3f	0.04340672
29	0xbea2bf70	-0.3178668
30	0xbd174d64	-0.03693904
31	0xbe2a92c9	-0.16657557
